modelwithBatch.pth (torch, 409224 bytes, 4 tensors)

fc1.weight f4 [128, 784]
000000 10 9a a3 3c 51 e2 bd 3c 95 00 ae bc 70 dd a9 3c
       0.019970924 0.023179205 -0.021240512 0.020735472
000010 2e f7 9e bc 2a ee 9e bc 13 8e 69 bc 65 e2 ff 3c
       -0.019404974 -0.019400675 -0.014255065 0.031235883
000020 1a d1 fc bc 5c 45 74 3c ba 5a 84 3c ac 3c f1 bc
       -0.030861426 0.014909115 0.016156543 -0.029447876
000030 38 e6 f2 3c c8 df f5 bc 5a 9a 01 3d 1c 51 45 3a
       0.029650792 -0.030013934 0.03164134 0.000752704
000040 1e a0 04 bd 4e 58 b9 bc 85 08 5f bc 25 7e fb 3a
       -0.032379262 -0.022625115 -0.013612871 0.0019187374
000050 f7 18 d6 bb 01 2a 6c 3c 3c 9c 7e bc 53 32 21 3c
       -0.0065337378 0.014414311 -0.015540179 0.009838658
000060 e1 84 ea bc 6e 53 5e bc 2e 1f df bc ce 5e a2 3c
       -0.028627815 -0.013569696 -0.027236547 0.019820597
000070 03 ba a5 bc 75 6f bd bc 00 5e 02 bb e1 f1 35 3c
       -0.020230299 -0.023124436 -0.0019892454 0.011105032
000080 b1 9c cd 3c e9 3a 14 bc 85 04 8e bb 81 3b fe bc
       0.02509913 -0.009047248 -0.004334035 -0.031034233
000090 97 21 b4 bb 8c 96 40 3c 9a cf 6d 3c d8 e8 9d 3b
       -0.0054971683 0.011754643 0.014514828 0.004819017
0000a0 4b a4 d2 3b 7e 27 6c 3c 8c ea 93 3c 62 1a ba bc
       0.0064282767 0.014413713 0.018056177 -0.022717658
0000b0 3e fc e3 3c 8a de d9 3a ff 5c a9 3c d6 61 e5 3c
       0.02783024 0.0016622108 0.020674227 0.028000753
0000c0 b8 af ca bc 6b ae c0 bb 2d 40 dd bc 05 29 06 3d
       -0.024741992 -0.0058801672 -0.02700814 0.032753963
0000d0 f5 79 82 3c 9b 78 0d 3d e5 0a 83 bc 01 04 c9 39
       0.015927294 0.034538846 -0.015996406 0.0003834069
0000e0 20 5e 08 3c ce 4a b4 bc 3e cd 33 bc 18 86 66 bc
       0.008323222 -0.022008326 -0.0109742265 -0.014070056
0000f0 2a cf 11 3d 7a d8 59 3c d7 6b 6c 3b 4d 24 f9 bc
       0.035597958 0.013296241 0.003607502 -0.030412817
000100 39 b3 fe 3c 50 89 5d bc 68 7f fd ba e0 04 6f 3c
       0.03109132 -0.013521507 -0.0019340338 0.014588565
000110 08 28 df 3c a2 ab e0 3c 48 5f dc 3b 8b 92 67 bc
       0.027240768 0.02742559 0.0067252256 -0.01413406
000120 f3 3d 0d bd 14 ed 85 bc e0 86 0d 3d 53 da 87 bc
       -0.034482908 -0.0163484 0.034552455 -0.016583597
000130 cc 74 82 3c cb 07 0b bd cf 6d a6 bc db f4 c9 bc
       0.015924834 -0.03394298 -0.020316033 -0.024652889
000140 ed ed 70 bc 94 ed 44 bc 4a fc 6e ba 77 44 c5 bc
       -0.014705163 -0.012019534 -0.00091165735 -0.024080498
000150 2a 73 61 3c 03 cc d2 3c 87 f5 f3 3c 50 ac b9 bc
       0.013760367 0.025732046 0.029780162 -0.022665173
000160 5a 54 44 3c 63 37 17 3b 3f ad ee bc e5 2b eb 3c
       0.011983002 0.0023073785 -0.029135345 0.028707454
000170 ec 29 d6 bc ea 45 d7 bc e8 bc 8f 3c bb 05 ba bc
       -0.026143037 -0.026278455 0.017546132 -0.02270781
000180 17 16 0c 3d 62 88 46 bc d9 94 b3 bc 9b 28 28 3d
       0.034200754 -0.012117477 -0.021921562 0.04105435
000190 33 50 39 bc 00 3d 8f bc 7d 29 bc 3b 10 fa e0 3c
       -0.011310625 -0.017485142 0.0057422505 0.02746299
0001a0 f8 fb f3 bc bd 95 12 bd 4a 29 48 3c 0b ed df 3c
       -0.029783234 -0.035787333 0.012216875 0.02733471
0001b0 24 90 10 bd b4 94 cb bb 56 9e 3a ba 6e 38 15 bc
       -0.035293713 -0.006212795 -0.0007118931 -0.009107692
0001c0 2c c2 fd bc aa 0b 45 3c ce 2f 29 bc 6a 1a 26 bc
       -0.030976377 0.012026707 -0.010326339 -0.010138134
0001d0 44 ae 38 bc e5 cb a7 bb 51 0e 96 bb e8 87 9e 3b
       -0.011272017 -0.0051207417 -0.0045793434 0.0048379786
0001e0 b0 49 d0 bc 5e 62 61 3b 8e a5 6d 3c 05 74 17 bb
       -0.025425762 0.0034390907 0.014504803 -0.0023109925
0001f0 8c f3 29 3c 0c 19 57 3d 9e b9 b7 39 ef 3d 20 3d
       0.0103730075 0.05251412 0.00035042776 0.039121564
000200 d6 21 6b 3c 54 dd 63 bc f2 aa 8f 3c c2 83 80 bb
       0.014351329 -0.013907749 0.017537568 -0.0039219568
000210 42 97 39 bd 7c f9 20 bd 94 4a 2c bc ea 67 7a bc
       -0.045310266 -0.039300427 -0.010515828 -0.015283564
000220 2e a3 f6 bc 75 63 4a 3b 42 56 9c 3c d6 f2 5a 3c
       -0.030107107 0.0030882035 0.0190841 0.013363561
000230 ca a0 fd bb 6e 8b 87 3c 3b 89 fb bb 2c 75 2e 3b
       -0.007740115 0.016545977 -0.0076762713 0.0026620133
000240 a6 cd c0 bb 07 f6 51 3b fd ff ec 3c 1a ab 1e 3d
       -0.00588389 0.0032037513 0.028930658 0.038737394
000250 e2 43 13 3a a4 e9 38 3d 68 4d 90 bb 0d bd 3b 3d
       0.00056177203 0.045144692 -0.004403759 0.04583459
000260 6d 60 11 3c 76 e2 1f 3d ce 1d 07 3d 6f 5b 86 3c
       0.008873087 0.03903433 0.03298741 0.01640102
000270 2e 4d 2e bd 4b a0 85 bd d0 ac 23 bd 81 77 e2 bc
       -0.042554073 -0.06524714 -0.03995973 -0.027644875
000280 cb 8b 8e bc b0 01 de bc 6b d5 2f bc fd e8 60 bd
       -0.017400643 -0.027100414 -0.010732035 -0.054909695
000290 b8 94 4b bd d4 f6 6a bb fc 8f 06 b9 f4 38 d8 3c
       -0.049702376 -0.0035852687 -0.00012832874 0.026394345
0002a0 b5 b5 aa 3c 7b 5c 1c bb 8b 84 db bc d3 40 cb ba
       0.020838598 -0.0023858834 -0.0267966 -0.001550699
0002b0 10 da a9 3c 29 71 69 3c e4 33 23 3c ac 92 0f 3d
       0.020733863 0.014248171 0.009961102 0.035051987
0002c0 75 38 3f 3d 68 bf 33 3d 3c 5e 1c bc 2e f7 46 3d
       0.0466847 0.04388371 -0.009543952 0.048575573
0002d0 45 6a 1b 3c fd 56 d1 3c aa 57 8c 3d a8 a9 1c 3d
       0.009485786 0.025554175 0.06852658 0.038247734
0002e0 0e e3 ab 3c 7c 0a b1 b9 ad 3c 36 bd 6f 62 76 bd
       0.020982292 -0.00033767882 -0.04449146 -0.060152467
0002f0 39 dd b4 bd 25 74 53 bd 30 1e 93 bd 4e 48 ab bd
       -0.088312574 -0.051624436 -0.07183492 -0.083634004
000300 6c f4 56 bd 66 84 72 bc 98 77 06 3d ed e6 10 3d
       -0.052479193 -0.014802074 0.032828897 0.035376478
000310 58 af 9c bc b6 16 90 bc 51 a0 65 bc 6f 2b fb bb
       -0.01912658 -0.017588954 -0.014015273 -0.00766509
000320 51 66 ed 3b fd 58 12 bb 17 eb 05 3d e4 67 17 3c
       0.007244863 -0.0022330873 0.032694902 0.009241078
000330 0d 6e 22 3c fd 2a a3 ba 16 7a 08 3d 60 b7 b2 bb
       0.009913933 -0.0012448725 0.033319555 -0.005453989
000340 4e 16 24 3c 8f 4a 10 3d 78 ac 41 3d 52 f2 a6 3d
       0.0100150835 0.035227355 0.04728362 0.08151688
000350 71 2c 3d 3d fd 62 e4 3b ab 31 4e 39 6e 23 74 bc
       0.04618496 0.006969808 0.00019664194 -0.014901025
000360 d2 50 01 bc 25 ee 4e bd a7 5f b9 bd 1a 3e f2 bc
       -0.007892804 -0.05052008 -0.09051447 -0.029570628
000370 1b 8a 31 bd 28 51 0a bb 5b f5 12 b7 f8 20 b8 3c
       -0.0433446 -0.0021105502 -8.759404e-06 0.022476658
000380 fb ab ff 3c 1c 83 2b 3c dc 3a 00 bd 81 8a 29 3b
       0.031209936 0.010468271 -0.031306133 0.0025869908
000390 1c de 02 3d e0 97 15 3d 5d ab c5 3c 59 76 ce 3c
       0.0319501 0.036521792 0.024129564 0.025202917
0003a0 17 2d bb 3c d9 93 f9 3c 9e 6a 82 bb f2 02 66 3c
       0.022848649 0.030466007 -0.003979995 0.014038788
0003b0 b7 72 d3 3c ca 4f ce 3c a3 9b 9e 3d 21 2c 6e 3d
       0.025811536 0.02518453 0.07744529 0.058147553
0003c0 e9 ce c3 3d c9 f2 70 3d 95 44 23 3d e0 2d 13 bd
       0.09560949 0.058825288 0.039860327 -0.03593242
0003d0 ef 3d 28 bd 93 1a c3 bc e7 32 6e bd 1e 2c 8a bd
       -0.04107469 -0.023816383 -0.058154013 -0.06746696
0003e0 e0 bc f0 bc fc 7e 86 bb 57 7f ae 3c 81 1f 12 3c
       -0.029386938 -0.004104493 0.021300955 0.008918644
0003f0 2d ea e4 bc 05 29 ed 3b 98 20 72 3b cf d5 7b 3c
       -0.027943695 0.007237556 0.0036945697 0.0153708

fc1.bias f4 [128]
000000 d6 e5 51 3c 8c 52 a7 bc 16 e4 80 bb 25 cd 7a 3c
       0.012811145 -0.020425104 -0.00393344 0.015307699
000010 c8 6b a1 bb 5e 92 02 3d 11 fb 11 bd 82 13 f3 bc
       -0.0049261786 0.031877868 -0.035639826 -0.029672388
000020 c6 89 56 bb e1 a5 cf 3b 66 2a f4 3c 59 31 9b 3d
       -0.0032735928 0.006336913 0.029805373 0.07577772
000030 21 4c f8 3c ea ea b7 bb 42 02 ec 3c 4d 22 4f bd
       0.030309739 -0.0056127207 0.02880967 -0.05056982
000040 23 16 15 3c 26 60 82 3c 23 47 e1 bb f5 94 57 3d
       0.009099516 0.015914988 -0.0068749352 0.05263229
000050 c4 80 1b 3c 1f c9 76 bb 89 fa 03 3c d6 ee 76 3d
       0.009491149 -0.0037656499 0.008055338 0.060286365
000060 6c 3c 02 bd 14 2a 52 bc 94 0d e9 3c 8e 30 dd bc
       -0.031795904 -0.012827415 0.028448857 -0.027000692
000070 00 d3 12 bd 1d cd 9a 3c d9 40 64 3c 32 26 b9 bc
       -0.035845757 0.018896634 0.0139314765 -0.02260122
000080 d3 c7 00 3d de 72 23 3c b4 ca 0f 3d 4e e4 81 3c
       0.031440567 0.009976117 0.035105422 0.015855934
000090 47 e0 77 bd 9a 7e 5e bd 47 d5 ea 3c 6b 81 3e bd
       -0.060516622 -0.054319955 0.028666152 -0.04651014
0000a0 f2 0b 79 3b 06 8e 85 3d d1 a4 d8 3c 0a c2 04 3d
       0.0038001505 0.065212294 0.026445778 0.032411613
0000b0 24 e8 ae bc c9 07 49 3d f9 a7 22 3d ae e2 76 bd
       -0.021350928 0.04907969 0.039710972 -0.060274772
0000c0 ec 65 69 3a 35 3c ac ba 41 7d 99 3c 66 95 7e bd
       0.0008903432 -0.0013140502 0.018736484 -0.062154196
0000d0 05 b2 11 3c 72 84 4b 3c 39 66 26 bc 62 fa b1 3c
       0.008892541 0.012421714 -0.010156208 0.021725837
0000e0 02 ea 65 bb 80 37 2e bc 9f 9d 83 3b 3f b7 ba 3b
       -0.0035082106 -0.010633349 0.0040165926 0.005698114
0000f0 92 5d 09 3d 27 39 25 bc 6e 46 20 3c 4c d1 71 3c
       0.0335365 -0.010084427 0.009782417 0.014759373
000100 b5 45 5d 3c 96 d3 88 bc 25 4c 30 bc f7 5b 63 bb
       0.013505389 -0.016702455 -0.010760342 -0.0034692266
000110 d0 a4 20 3d 47 8a 20 bd 88 95 f5 3c 9b 5b 9b bb
       0.039219677 -0.03919437 0.029978529 -0.004741145
000120 41 eb 27 3d c5 81 1f bc d4 38 27 bc 52 a2 d9 3c
       0.04099584 -0.009735529 -0.01020642 0.026566658
000130 f2 62 67 3d fc c3 13 3d 03 18 e7 bc b8 20 7f bc
       0.056490846 0.036075577 -0.028209692 -0.015571766
000140 e9 6c 86 3c 75 19 1c 3c 5d 21 93 3b b4 57 96 3c
       0.016409354 0.009527554 0.004490061 0.018352367
000150 7e f5 41 b9 c2 81 ca 3b 1d bc 43 bd 89 29 83 bc
       -0.00018497367 0.006180019 -0.04778682 -0.016011016
000160 61 81 ea bc da 79 ac bc d2 ec 3a bd 11 21 55 bc
       -0.028626146 -0.021054197 -0.045636006 -0.013008372
000170 0f 4a 80 bc fe b5 73 3d da 30 3b 3c 3a 8c d1 bc
       -0.015660314 0.059499733 0.011425221 -0.02557956
000180 8f 52 c8 3c 89 e9 26 3d 25 f1 3a 3c bb 20 9d 3a
       0.02445343 0.04075006 0.011410032 0.0011987904
000190 17 1a 4c bd 60 9c 53 3d f7 8c 43 3d 98 81 c5 3c
       -0.04982957 0.051662803 0.047741856 0.024109647
0001a0 bf 6f c3 3a 2d a1 d5 bc 93 16 b3 3c ab 29 06 3d
       0.0014910622 -0.026077831 0.02186135 0.03275458
0001b0 31 98 a9 ba e9 23 4a 3d 10 09 8a bc e6 0f 0e bd
       -0.0012939033 0.049350653 -0.016850024 -0.03468313
0001c0 cb 6e 5d 3c 8e 89 b0 3c ec a5 ba bc 10 3c 27 3c
       0.013515185 0.021549966 -0.022784196 0.010207191
0001d0 f1 bd a5 bc aa 0c df 3b 08 8c a4 3c 26 f8 35 bd
       -0.020232173 0.0068069296 0.020086303 -0.044426106
0001e0 d6 f6 1b bd d3 7b cc bc c1 fe 54 bd 23 b0 82 38
       -0.038077198 -0.024961388 -0.052000765 6.231691e-05
0001f0 7b f1 76 3d f0 0e 00 bd 58 71 d2 bc f3 ba cf 3c
       0.060288887 -0.031264246 -0.025688812 0.025357699

fc2.weight f4 [10, 128]
000000 f8 db b5 be 69 6d e5 3d 01 43 4b 3e 83 23 ff bc
       -0.35519385 0.11202509 0.19849779 -0.031144863
000010 36 5e 00 3e 18 d8 75 bd 87 a0 80 3e 02 20 d2 3e
       0.12535939 -0.060020536 0.25122473 0.41040045
000020 d2 61 b3 3d a6 c8 73 3e ec 75 d0 be 9b e2 a9 be
       0.08758892 0.2380701 -0.40714967 -0.331807
000030 f0 a1 84 3e 8a 34 9c 3e 7d e2 c6 be 6d 33 81 3d
       0.25904799 0.30508834 -0.38844672 0.06308637
000040 05 81 0f be 63 b3 18 be e9 b2 b4 b8 60 cd e0 3c
       -0.14014061 -0.1491218 -8.6163935e-05 0.02744168
000050 f9 98 73 be b1 30 86 bd d9 f1 5d be 22 08 b6 be
       -0.23788823 -0.06552256 -0.21674289 -0.3555308
000060 db 33 2f 3d 42 51 fa be 38 6e bb bd 6d c3 1d be
       0.042774063 -0.4889012 -0.09151882 -0.1540658
000070 aa 26 0f 3e 95 08 9b be a1 50 a0 be bf f7 62 be
       0.13979593 -0.30279985 -0.31311515 -0.2216482
000080 de 70 67 be 64 20 b2 be 4e 4d 0a 3e a5 b2 7d be
       -0.22601649 -0.34790337 0.13506052 -0.24775179
000090 21 51 20 3d 20 bf 6d bd 5e ad 86 be 8f 29 49 be
       0.03913987 -0.0580436 -0.26304144 -0.1964476
0000a0 00 fa 35 3e 21 48 a4 be 9e c7 e9 be 9d ee 55 3e
       0.17771149 -0.3208628 -0.45660108 0.20891805
0000b0 eb 40 6c be 37 97 e0 be 12 e6 a9 3d ca 51 50 3e
       -0.23071639 -0.43865368 0.082958356 0.203437
0000c0 38 c8 aa be 49 6a 64 bd 8f 53 5d bd 0c 31 fd 3d
       -0.3335588 -0.055765424 -0.054034766 0.123628706
0000d0 7c 18 5b 3e 7c 67 a6 3e 7c 07 c6 3e 89 04 df bd
       0.21396059 0.32500827 0.38677585 -0.10889537
0000e0 3e 99 8b 3d 48 20 54 be 91 5b a5 3e 9e 21 9c 3d
       0.06816338 -0.2071544 0.32296422 0.076235995
0000f0 7c 71 69 3d 08 47 61 bd 91 cc d1 be dc 4b 50 be
       0.056992993 -0.05499938 -0.40976384 -0.20341438
000100 22 93 bd be 49 93 97 3e e2 02 d0 3d aa 42 5e be
       -0.37026316 0.29604557 0.101568 -0.21705118
000110 e9 1a 99 be af e6 22 bd 62 2f 9c be ee 64 47 3e
       -0.29903343 -0.03977078 -0.305049 0.19472095
000120 39 7d e6 bd ef 49 bf 3e 3b c7 ab be 27 a6 31 3d
       -0.11254353 0.37361094 -0.33550438 0.043371346
000130 8d a5 88 3e e2 e3 79 bd 75 b3 83 bd 0d f4 83 be
       0.26688805 -0.06100834 -0.06430713 -0.25772133
000140 f8 a9 49 3e 9a 4c 60 3e c1 41 64 be 3a 62 c7 3e
       0.19693744 0.21904221 -0.22290708 0.38942128
000150 13 b4 1f bd b5 84 43 be 7b 52 4f be 31 70 0c bd
       -0.03899009 -0.19093592 -0.20246308 -0.03428668
000160 07 85 c2 ba 8e ba ab 3e 3f 83 85 3e 73 11 ab 3c
       -0.0014840671 0.33540767 0.26076695 0.020882344
000170 72 7d 23 be 6b 4e b6 be 9c 33 d2 3e d9 47 cc 3e
       -0.15965822 -0.35606703 0.41055 0.39898565
000180 04 92 d0 bd b3 bb 47 be aa 9c 47 be 2f 54 b2 be
       -0.101841 -0.19505195 -0.19493356 -0.34829852
000190 58 e8 c0 3e 6e e4 95 3e cf ad c3 be 34 27 e6 3d
       0.37677264 0.2927584 -0.38218543 0.11237946
0001a0 88 21 37 3e e2 b7 d4 bd 4a 54 ab 3d 8c e6 38 3d
       0.17883885 -0.10386635 0.08365686 0.04514174
0001b0 be 06 eb 3e dd 99 30 3e 4b 58 d6 3e e5 ad be 3d
       0.4590358 0.17246194 0.41864237 0.093105115
0001c0 b0 32 37 3e 4f 55 18 bc cf 42 15 bc cf f9 9e 3e
       0.1789043 -0.009297683 -0.009110167 0.31049964
0001d0 88 8e a6 be 54 2b 77 3e 3a 8b ce 3d cc 15 91 3e
       -0.32530618 0.24137622 0.10085149 0.28336942
0001e0 cd fd b2 be 5c e2 ce bc 4d 34 9e 3d 67 a7 84 3d
       -0.3495926 -0.025254421 0.07724819 0.06477242
0001f0 e6 23 85 be 0e b9 80 3e 0c c7 c3 3e be 43 c9 be
       -0.2600395 0.25141186 0.38237798 -0.39309496
000200 74 57 4f 3e de 81 20 be 16 e0 a0 bd 57 bb 40 be
       0.20248204 -0.1567454 -0.07855241 -0.18821464
000210 91 2b 04 3e b0 79 99 3e 34 c8 21 3d e8 60 90 be
       0.12907244 0.29975653 0.03949757 -0.28198934
000220 16 39 0a be e5 dc c8 3d 9c 4e dd 3e 39 e1 aa 3e
       -0.13498339 0.09807757 0.43224037 0.33374956
000230 3e 64 b6 3e 11 28 1a bf a6 17 de 3d 57 cb f2 3b
       0.35623354 -0.60217386 0.10844354 0.007409494
000240 ba 24 45 be f3 89 11 3e 31 15 b7 3e 7a 1c 34 bd
       -0.19252291 0.1421278 0.35758355 -0.04397247
000250 eb 65 61 3a 2e 90 46 3e 2e 10 e6 3a 0d 17 2d 3e
       0.0008598256 0.19390938 0.0017552429 0.16903324
000260 93 70 63 be ed e3 a8 3e ed c4 68 bb 39 f4 51 bd
       -0.22210912 0.32986394 -0.0035517768 -0.0512583
000270 44 17 24 be 90 58 87 3e 67 61 7d 3e 54 19 d4 bd
       -0.160245 0.26434755 0.24744187 -0.103563935
000280 24 3b 02 3e f9 da 97 3e 2d c7 2f 3e 2b 9a 26 be
       0.12717873 0.2965925 0.17165823 -0.16269748
000290 ea 35 ba be b6 39 7b be 7e 29 91 be 26 78 8b 3e
       -0.36369258 -0.24533734 -0.2835197 0.27240103
0002a0 af c6 fa bd 8a 56 cd 3e eb 4f ba 3e 40 8c 24 3e
       -0.12244927 0.40105087 0.36389098 0.16069126
0002b0 43 ee 91 3e 5f fa 9c 3e 5f 0a 85 3e 00 35 82 be
       0.28502092 0.30659768 0.25984475 -0.2543106
0002c0 22 9e c0 3e be a2 80 3e f5 6f ba bd 85 e3 ca bd
       0.37620646 0.25124162 -0.09103385 -0.09906677
0002d0 a9 81 9f be a2 37 99 be 59 b9 86 be 10 33 68 3e
       -0.3115361 -0.29925257 -0.26313284 0.22675729
0002e0 9a b9 15 be be dd 45 be ec c4 cf be 21 02 93 bd
       -0.14621583 -0.19322869 -0.40579927 -0.071781404
0002f0 be 63 9a be e8 d3 c6 be 84 e0 82 3e 0b 16 08 3f
       -0.30154222 -0.38833547 0.25561917 0.53158635
000300 8d 0b a2 3e f1 21 f8 be 90 5a 0c be 9e 7d aa 3e
       0.31649438 -0.48463395 -0.13706422 0.33298963
000310 04 ab 8b 3d b5 01 09 3e 6a 6b 3c 3e 25 47 d6 bd
       0.06819728 0.13379557 0.1840035 -0.104627885
000320 19 76 cd 3d 3d 2b 8b be 08 76 59 be 24 c0 8c bd
       0.10032291 -0.27181426 -0.21236432 -0.068725854
000330 54 54 84 bd 9d 1a b8 3d 59 21 1f bc 7e 05 98 3e
       -0.06461397 0.08989451 -0.009712541 0.2969169
000340 1d 0e 81 3e 49 3e 81 3e cc 17 c7 3c dc 24 e2 be
       0.2520608 0.25242832 0.02430334 -0.44168746
000350 91 c6 56 3e 81 e6 87 3e 4e f5 39 bd 7d 11 a9 bd
       0.20974185 0.26543048 -0.045399956 -0.08255289
000360 b9 c5 ac be 3f 31 ba be 64 cc b8 be e2 98 19 3e
       -0.337446 -0.36365697 -0.36093438 0.14999726
000370 3c 79 88 be 29 2a c4 3e a4 e3 68 be 13 c9 8b be
       -0.26654994 0.38313416 -0.22743088 -0.27301845
000380 88 da 2f 3e 82 84 00 3d 85 3c 83 be 27 b9 62 3e
       0.17173207 0.03137637 -0.2563211 0.22140943
000390 54 1e 23 bf 7e 96 62 3d b1 79 a2 3e 3c 33 db 3d
       -0.6371815 0.0553193 0.31733468 0.107031316
0003a0 b2 e1 15 be 79 ea 27 3e 65 23 ed 3d c3 d9 2f 3d
       -0.14636877 0.16398038 0.115790166 0.042932283
0003b0 d9 4d 5d 3e 1b 9e 08 3e da 4b 4e be fa f5 15 3a
       0.21611728 0.13341562 -0.20146123 0.0005720552
0003c0 76 bd 90 3e b8 e7 0a be 85 2b 27 3e 89 c5 af be
       0.28269547 -0.13564956 0.16325195 -0.34330395
0003d0 96 bc 36 3e c1 0f 63 be 10 5f f5 bd a1 12 a3 be
       0.17845377 -0.22173978 -0.11981022 -0.3185015
0003e0 6d 39 29 3e f2 af 89 be b6 75 c5 3d 57 71 aa be
       0.16525812 -0.26892048 0.09641592 -0.33289596
0003f0 5f 2f a4 3e 7e 71 63 be b2 d0 49 be bd cb c8 3d
       0.3206739 -0.22211263 -0.19708517 0.09804485

fc2.bias f4 [10]
000000 12 83 b3 bd bf 17 99 bd 49 0b 86 bd 3d 41 5d 3d
       -0.08765234 -0.07475232 -0.06545121 0.054017294
000010 d4 17 55 bd 3e 05 8b 3d d2 e6 a3 3d 00 4c fc 3d
       -0.052024677 0.06788109 0.0800301 0.12319183
000020 ef 98 75 3c 80 5d 4e bd
       0.0149900755 -0.050382137
